weights.npz (npz, 2226 bytes, 2 tensors)

w01 f8 [9, 12]
00000000: 08cd 8a77 5c6b adbf a59a ed2c 3790 d03f
00000010: b8ab 6498 1da4 febf c981 2593 5475 d73f
00000020: fe4e d0af b4d1 e33f e9dd fd08 c264 e6bf
00000030: d7e5 530c a421 edbf 65f6 24c9 2df3 e8bf
00000040: 54ff 2a2e e448 a6bf c4ca 20a3 b29a 883f
00000050: a147 3b09 c7e4 c4bf 4e30 9b4b 7095 e53f
00000060: 5d56 6a0e 1fbc e3bf cdcc e664 0093 d63f
00000070: 95da 33d2 647d f2bf 75ab 4fb8 aa0b c63f
00000080: 7894 2011 1fbe cebf d867 502c 8553 e33f
00000090: cfff 1a74 dd96 e7bf d0ca c7f0 73ce d0bf
000000a0: 45a6 fe91 d87b ea3f 2f53 e031 3983 f43f
000000b0: ecfd fc97 9d9c d9bf 7129 bb7c f6bc e03f
000000c0: 8f20 642e 357c ef3f d02a fe12 7134 f93f
000000d0: 3b40 f8aa 67a0 eabf 433f d0b9 8a8a efbf
000000e0: a99e 2b0f ecbc d0bf 40c8 f5b2 4171 e73f
000000f0: e190 9581 c7ef ecbf 5308 19b7 783b adbf
00000100: 3ede e1ae f940 f33f 7cc3 e354 0f99 e53f
00000110: 08b8 fd56 ef6d a43f 22d8 9b58 c96f e7bf
00000120: f51c 4881 9129 c13f d2c7 a7d9 4e92 e03f
00000130: 7f73 0d84 58ad eebf da44 9ac7 e745 d03f
00000140: da90 a5e8 10bb bcbf 692f c6e0 2ad5 e23f
00000150: b9ba 9311 dd9c e0bf 178e 6249 c537 d43f
00000160: f3a7 808d b27d f2bf e919 0653 b270 e8bf
00000170: e9a5 2c0f b022 ef3f 4b55 8bbf e29c edbf
00000180: 232c 7d71 e122 acbf 1927 de13 f568 cfbf
00000190: b1a8 82c9 196a e9bf 915d ac08 d781 e53f
000001a0: 9b2c 5a95 69a5 c7bf 39dd 6d02 dfb9 db3f
000001b0: e917 87dc cb29 e83f f318 6cfa 83c9 e7bf
000001c0: 94d5 5b69 7dac e43f b3da 5bbb cee3 cebf
000001d0: 198d d5ec f6f3 a6bf 546a e54b 97ee d83f
000001e0: 6331 3ecc 819c eabf cc5f 2153 1cb2 e53f
000001f0: 790b f40f d7f1 e03f 9e85 b5d6 ae4f f2bf
00000200: dd94 0a15 1cba f8bf 3f4c 8765 755c d4bf
00000210: 0289 f895 99f5 ea3f 1a85 d966 a906 bcbf
00000220: b401 f029 1d77 ef3f 48d8 9cc2 5f9b 9a3f
00000230: 4979 e896 d937 e93f 69f5 c00a 558f e1bf
00000240: ec9c 58a5 11b9 ecbf a340 b7fc 991c aebf
00000250: 6ce1 f6d5 1a2f bcbf b359 811f c776 e3bf
00000260: d3e6 c93e b427 d03f d4ba 70c3 09bb f1bf
00000270: 0478 10a6 d01a d43f 5a2d 52c7 8130 ec3f
00000280: aaa1 ff47 ee10 df3f ff9c 431c 11c3 c9bf
00000290: ffb5 07b5 52c1 e53f ee75 4f90 7f95 b33f
000002a0: 073d 7018 5b80 e3bf 3c71 d045 9f57 e03f
000002b0: 89b1 c35d cd1c c73f fd96 c36d 958e f33f
000002c0: d954 ddbd d36c d0bf 2571 06db 82d4 a0bf
000002d0: a4e1 a49c 0734 f5bf 07e0 5516 bef4 f13f
000002e0: ae7a e047 04e4 d8bf b332 2249 c988 d13f
000002f0: b564 4ae9 7bc8 bf3f c27d a7ad 2375 e1bf
00000300: 97db ea8c 7b88 f03f 079e e5b5 deeb e0bf
00000310: ae03 8028 c9c1 e6bf f0fb 69c3 9807 d63f
00000320: 116a a7ce 3fa8 e6bf 0004 967f cd0c dcbf
00000330: 99df daf0 d0ed ea3f 64ac c4f5 3b85 d7bf
00000340: e7e8 8ad8 8061 c53f 7b6d 610d 2087 c53f
00000350: 7473 d2f5 4e1b f0bf 3064 f073 05fc f23f
-0.05745972594504606 0.2588022173644425 -1.9150672867642538 0.3665362774827626 0.619348853479522 -0.6997995544069769 -0.910356544568624 -0.7796849182702316
-0.04352486671041214 0.012013812640451767 -0.16323173475990152 0.6744920231517513 -0.6167140275526425 0.352722261940653 -1.155613728622176 0.17223104476519394
-0.24017704330723055 0.6039453378209556 -0.7371661441502456 -0.2626008845683545 0.8276179172000374 1.2820369671146172 -0.4001840576420068 0.5230667530206984
0.9839120775295828 1.5753031484515994 -0.8320806826832333 -0.9856618527573818 -0.2615308902881944 0.7325752730669208 -0.9042699366514421 -0.05709435687141764
1.203363116392111 0.674934068489264 0.03990123688605257 -0.7323958140029883 0.13408106625158892 0.5178598643381014 -0.9586603716994516 0.254266686367442
-0.11222940139629448 0.588521422397645 -0.5191483825018032 0.3159039703989221 -1.1556878592914444 -0.7637569066580997 0.9729843422293786 -0.9254010907267597
-0.05495361814845292 -0.24539054365259785 -0.7942017493962991 0.6720996064567989 -0.18473548691358563 0.43321967351171825 0.7551020915204819 -0.7433490649280244
0.6460558946406985 -0.24132713459376517 -0.0448300518135289 0.3895624390767456 -0.8316048611755317 0.6779920219078064 0.5295214950168506 -1.1444538485596705
-1.5454369375159367 -0.3181432239045456 0.8424804619901638 -0.10947664986590092 0.9832902735798172 0.025983330014433897 0.7880676219390718 -0.5487466058763576
-0.8975914220253833 -0.058811962222195 -0.11009376262416531 -0.60824924615263 0.25242334491450186 -1.1081636080158903 0.3141366597864137 0.8809212582577104
0.48540837317571095 -0.20126546745380122 0.679849008154349 0.07649991296008071 -0.6094184377015218 0.5106960643347871 0.18056647375432203 1.2223104751259932
-0.2566422800203561 -0.03287133144042035 -1.3252025717648417 1.122251593826151 -0.38891703623986984 0.2739737714953591 0.12415289350100774 -0.5455492393193071
1.0333209518991902 -0.5287927200960788 -0.711155490018532 0.3442136677112435 -0.708038238163967 -0.43828141650743646 0.8415302948187559 -0.36750697136694144
0.16703806470270097 0.16818619397495724 -1.0066670992302678 1.186528637778121

w12 f8 [12, 9]
00000000: 8ddb dbf3 1d9c f5bf 2e3c 95ee 7217 e8bf
00000010: 2f7f d70a cbac fabf 9187 5c94 ea77 f4bf
00000020: f6d6 8b8d adfd d3bf 81e9 71ae 725e f2bf
00000030: 200a 94bd 9ceb f7bf 46c8 0456 cf68 c3bf
00000040: 6d1a e2b2 8b70 cbbf bc06 7982 9504 be3f
00000050: 2943 1b87 acb2 f7bf 50fc a07c aedc f4bf
00000060: 67de 71e0 5f5d f7bf c1fb 9631 f76b ffbf
00000070: 3015 08f1 a4b6 00c0 3e37 9069 83f5 f4bf
00000080: d4c1 d39e 62fc d13f 7798 c437 dbdd eabf
00000090: 5994 cae1 b112 d6bf e8b1 d8c1 a40f a4bf
000000a0: 6235 d80c b31e febf ba84 0de6 2aa7 f9bf
000000b0: da1a c929 b93a f5bf d786 3ffa 598e d1bf
000000c0: fc77 339e 8cd3 dcbf 8095 a037 7a05 00c0
000000d0: e57b 12ed 652e e5bf acc1 cff0 06fc 01c0
000000e0: 459e 14df cbaf e3bf 77d3 81d4 cdf1 debf
000000f0: c3d2 d7ad 26b6 b8bf 1eca 9e27 cd55 e7bf
00000100: b249 a7cb 06fd e8bf dda4 4189 3722 f7bf
00000110: 3b23 d5bf e8f4 fcbf 9c75 d76a dacc fcbf
00000120: e9f4 1086 ea5c 00c0 06cc 6e89 b2cc fdbf
00000130: fc13 e1b4 e3e2 e4bf 60a3 e0a8 8848 b4bf
00000140: c835 994f 5b05 f4bf b4e1 23f8 dc84 f7bf
00000150: c9ae 84fa bace 00c0 39ed 102f 046d d13f
00000160: 1450 59b1 7b56 e8bf def7 8b38 e127 f8bf
00000170: 9b42 709b a76b 02c0 f46f ebb6 feb4 cbbf
00000180: 9286 3d8d 07b4 fbbf 02f4 01c6 3305 f4bf
00000190: 20c2 e5de c5be c4bf 1234 b85e cb5c c23f
000001a0: f4ad 3eff b5ba f0bf dca0 5af7 40f7 edbf
000001b0: 0934 8d1c 81f9 f3bf b84f 0436 1b89 b23f
000001c0: 4368 6c2a c462 01c0 e985 7921 d129 00c0
000001d0: d41b 5332 1af2 00c0 af4e 5422 1ab1 f4bf
000001e0: 70f2 b42e 6088 d5bf d30c 6043 134c ebbf
000001f0: c4b5 5108 7db3 f3bf 0c3c 89a9 960e da3f
00000200: a85e 1168 af35 e5bf 7912 5374 5f55 e1bf
00000210: 8b25 7fba 9b31 debf 00f1 ae87 2fc1 eabf
00000220: dbe1 ea80 1914 e4bf ec8f 14e0 7d86 f5bf
00000230: c89a 93da f9e6 fdbf 0916 4989 1249 f2bf
00000240: 6f51 7b21 11e9 e6bf fa32 35b2 9924 ffbf
00000250: d2f9 0811 6337 efbf b629 44da 394b fdbf
00000260: a596 5fa1 6f6d f6bf 766c 3303 9981 efbf
00000270: b516 f7a6 2c12 f7bf 41c6 ba84 8c7a dfbf
00000280: 680b 32be a4fb e7bf 6b1a 85e4 3c1f e1bf
00000290: 3290 b8c9 67c0 00c0 e3c8 94fb 04f2 fabf
000002a0: 40da 0ac0 00d8 72bf 6f51 6e5a efa6 dabf
000002b0: 74c6 abf8 2964 dbbf dc8d 0cee dbbf 8dbf
000002c0: b2a3 0f4c 3de0 fbbf 7e30 a785 5893 f4bf
000002d0: 3869 97cd 7a0e d6bf 2043 507b af09 cfbf
000002e0: b85a 1bab 94b7 cf3f 84bd 4f9c 17b7 f2bf
000002f0: fc87 3fb9 9509 e8bf 4653 0ef7 b21d e4bf
00000300: 9bb4 8ed3 9393 eebf 7054 3ccc c315 e4bf
00000310: 4498 46cb 1098 f0bf d4f5 1b1d f873 00c0
00000320: c113 62c9 2a17 e2bf 20b2 1c78 0fe7 cabf
00000330: 211d c19b 30fd e1bf 3232 55a3 adc4 a63f
00000340: 08a2 c4eb 700b 00c0 f44b 2537 73a9 f9bf
00000350: 7dee 2194 8cf6 f8bf f32a 03a8 1a93 ebbf
-1.3506145025000678 -0.7528624210189088 -1.6671858237750248 -1.2792764468544855 -0.3123582727706514 -1.1480585874802218 -1.4950225263024848 -0.1516360445035067
-0.21437212214023607 0.11725744662637799 -1.4811215665433315 -1.3038773411097004 -1.460296513307094 -1.9638587891674748 -2.0891817885009445 -1.3099397777145465
0.28102937231508673 -0.8395820702760507 -0.34489104318556013 -0.0391818510655389 -1.8824949743023685 -1.6033123957097772 -1.3268367416618987 -0.27431344450279255
-0.450411943906033 -2.002674517238745 -0.6619138365093674 -2.248060113277651 -0.615209518150501 -0.483508546377656 -0.09652940506186795 -0.7292238019784383
-0.780887029419594 -1.4458537446574191 -1.8097922795734138 -1.8000129865170953 -2.0453691934513825 -1.8624749535053993 -0.6526964695736974 -0.07923177836404482
-1.2513077840152267 -1.4699372952437502 -2.1009425708524287 0.2722788295393062 -0.7605570281834866 -1.509736271749254 -2.3025657790788734 -0.21646102840065817
-1.7314525143814632 -1.251270078151038 -0.1620719278685252 0.14345686078050385 -1.0455837221624025 -0.9364323454983849 -1.2484141459747227 0.07240457600374739
-2.173225718911483 -2.020418416520205 -2.1182140285122646 -1.2932378140439302 -0.3364487129327136 -0.8530365291520873 -1.2313204121559105 0.40714041286713676
-0.6628033669066626 -0.5416714927637961 -0.47177785122456645 -0.836082234388897 -0.6274535673065275 -1.345334887803797 -1.868890622916 -1.1428399431910086
-0.7159505514087366 -1.9464356385462325 -0.9755111057964376 -1.8308657194162214 -1.4017177871368542 -0.984570032359797 -1.4419371149137252 -0.4918547912776355
-0.7494682039981457 -0.5350632155685394 -2.0939479598473776 -1.684086783160233 -0.004600527696928369 -0.4164389021982719 -0.42798852237965623 -0.014526098444156803
-1.7422459574829472 -1.2859730931113798 -0.34463377072610824 -0.24248307725113083 0.24778993944956595 -1.169700251189938 -0.7511700266006751 -0.6286253762542422
-0.9555148250562014 -0.6276568402269174 -1.0371253910502825 -2.0566255830915257 -0.5653280194534248 -0.2101764046177701 -0.5621569673611796 0.04446928614433822
-2.005586473406087 -1.6038696436050914 -1.5601926599910307 -0.8617070466510469
