weights.npz (npz, 1650 bytes, 2 tensors)

w01 f8 [9, 8]
00000000: ee68 7f0e 938d 8b3f 083d 7a76 60ba f73f
00000010: 75d6 bc5b 73f7 f6bf a123 fa79 199a f0bf
00000020: cae1 7d63 6a67 edbf 0659 771c c450 f0bf
00000030: a24d 4320 1257 f53f e528 082d 7d20 e33f
00000040: 4baf 14b9 10cd e0bf 2b0f bb28 2635 b7bf
00000050: 47d6 02d3 3c3b eabf 14e7 3bf3 8a54 d1bf
00000060: 3602 a6d9 0c08 f9bf 4a76 c935 d4a6 ee3f
00000070: 2b07 9894 8426 eebf 6503 f6b2 edc5 f2bf
00000080: 460a f199 14d9 efbf b9ab 5335 9e35 d2bf
00000090: 3175 4e69 1636 04c0 984c f770 a73c f0bf
000000a0: 289e 5378 ade7 fb3f b448 a489 8a1d 0340
000000b0: 52d4 d122 9f00 f4bf 6f9e a568 3d71 c9bf
000000c0: 7d38 dafe 9ea3 f33f edf3 a86a e318 e73f
000000d0: 67c1 02ea 4f25 c1bf ca1d 29d2 b0dc f1bf
000000e0: 2764 88e1 6002 f9bf 9ec5 75c4 2b7b ddbf
000000f0: 0c03 6f6d bb9d f3bf b6e8 3e39 d0f3 b03f
00000100: f338 4f93 b583 e73f 7327 e06b cb85 c6bf
00000110: 2d1f 8d4e e70a f43f d0ed 20d5 8c38 ecbf
00000120: 41db 86df 60aa de3f c6a9 2d9f 6132 bcbf
00000130: 2419 2171 acd4 02c0 6a05 ec46 1d92 fb3f
00000140: 4493 ff24 a96c e23f 7b62 94b9 a645 da3f
00000150: edc2 f82d 2fc9 dcbf b722 1c33 c998 f1bf
00000160: 053e 3a1e 23cb e3bf e1e2 cc05 22f6 e23f
00000170: b8c1 330e f23d d53f 0542 f689 3d68 d8bf
00000180: aa4c a36b a9d4 e13f 9359 1434 2a6b f6bf
00000190: d8ac 8593 e43d c2bf aae5 99d4 be34 f23f
000001a0: 9843 610a 1945 ed3f d250 fccc 2e86 e9bf
000001b0: 850d a655 da28 e83f 6561 9834 948e bd3f
000001c0: 0d88 eb7d 41d6 d3bf e157 e174 0715 e7bf
000001d0: df59 6e9f 352c b1bf c869 09dd cc11 0840
000001e0: 9c04 1675 dbcc f6bf 69bf 05e2 ae8b e2bf
000001f0: c330 7cf8 81d7 d3bf e855 8b8d c233 eabf
00000200: 8dcb a1c3 3e96 f7bf 260d 7c94 de37 ed3f
00000210: c7ed 926f e37f ec3f 291e 4d87 4a3e 7d3f
00000220: 5222 29d0 fa54 e63f 2603 4bf5 527a c43f
00000230: 5298 3728 0500 fc3f eb52 35c8 97ed f1bf
0.013453625564512763 1.483002150347433 -1.4354127486707544 -1.0376219525080403 -0.9188739722440513 -1.0197182762108823 1.333757520701376 0.5977159385231771
-0.5250323881968851 -0.09065474028016911 -0.8197311517057607 -0.2707850814182262 -1.5644653798955352 0.9578648615385614 -0.9422018911575142 -1.1733223906196255
-0.9952490812941697 -0.28452258308123707 -2.5264099337643064 -1.0148081219420302 1.7440619182833732 2.3894243958721635 -1.250151763929598 -0.19876830682482047
1.2274465518162565 0.7217881282045916 -0.13395117689425293 -1.116379567088972 -1.5630806741594456 -0.4606427591853278 -1.2260088228942463 0.0662202968368629
0.734827792848391 -0.17595808760989548 1.2526619976433253 -0.8819030916851549 0.47914907292163283 -0.11014375816527097 -2.3538445318437358 1.7231724520100564
0.5757642481445164 0.4105011760998775 -0.44977931489397244 -1.0998012539368298 -0.6185470190411598 0.5925455201423483 0.33190585505419845 -0.3813623282703989
0.5572096922209273 -1.4011632952075146 -0.14251382067900553 1.1378773026211584 0.9146847918255956 -0.7976297381997262 0.7549869225335192 0.11545683178008444
-0.30995213791732185 -0.7213170321290329 -0.06708083288535914 3.008691527223366 -1.425013978354662 -0.5795511641026511 -0.3100285460102549 -0.8188183559929572
-1.4741809503436543 0.9130700016106956 0.8906113795450715 0.00713948357299147 0.6978735032690315 0.15998303391645513 1.7500049181922077 -1.1205060787808019

w12 f8 [8, 9]
00000000: aa07 1af1 b2df 00c0 0263 4c9b 1504 f2bf
00000010: dccc b2f7 2d14 f03f 4760 0489 f98c edbf
00000020: 9aa0 ddf7 b147 c13f 5f76 c1cb 9d2b 00c0
00000030: e688 3258 4e8c f5bf 5585 8f49 6bb8 c53f
00000040: e9dc 3232 8d8c f6bf 464f 41a3 e68f ecbf
00000050: b2c9 4c85 6eff ecbf 9d54 b03a c3fd f9bf
00000060: 99a8 1715 e3bb febf d582 377c 0a3b ebbf
00000070: 964e 7a80 4565 e8bf 6aec c242 55e2 ef3f
00000080: 1eac f77d 468e dc3f adab 046b 2075 f3bf
00000090: d643 eff6 7bfc 02c0 7061 2939 d748 efbf
000000a0: 9209 8c5d 8a34 a73f 6b88 81de 2b59 c93f
000000b0: 57b7 fbcc 4e34 f7bf 4bee 32e3 cfb6 febf
000000c0: 6a0b cafe 7097 c33f 4cda ef6d d793 ffbf
000000d0: 5baa 3931 8e77 08c0 7177 4258 9190 e5bf
000000e0: 9c0a ac41 14f3 04c0 ea8c 1999 6eb6 bfbf
000000f0: dec7 177a ac17 f0bf 5ce7 b2c8 5e59 f8bf
00000100: 44cd 1b8d 1e7f c4bf 8068 b735 3a7d edbf
00000110: f0cb 9609 9129 12c0 624e ef0f 88e6 ef3f
00000120: 5754 b782 8426 e1bf f193 ad98 349c c3bf
00000130: 5703 f2e8 c343 01c0 9e54 7dd9 49d4 f1bf
00000140: 9249 5889 07c1 d9bf ac42 771f 62cf c1bf
00000150: 1c16 ffce cd83 0fc0 8c5f 93b9 437c b4bf
00000160: 8a38 41d2 bae6 f1bf 416f 9ac3 6160 a5bf
00000170: 1f56 8144 dc7c f7bf 0747 4185 1138 01c0
00000180: 864a f4e0 0518 f9bf 63e7 3501 6516 02c0
00000190: 94da e58a b4fa 00c0 4d7c fd93 a21b 03c0
000001a0: d438 23a9 ef9f fa3f e115 b99c c9e2 e13f
000001b0: 8d1e 9259 9d6a dcbf bd2d 69e6 1249 ecbf
000001c0: ccec d6a2 a600 0ac0 22a2 1ea1 22f5 01c0
000001d0: 031b dfdc d61a f5bf e913 2452 b568 d33f
000001e0: e924 1895 a7f6 e2bf 30be 33a3 97a1 0fc0
000001f0: 5184 501c 6965 ecbf 7638 4852 3975 fbbf
00000200: 9f3d f513 5f77 f7bf 71a2 4e84 f6e8 c53f
00000210: f2dd 3bb9 67ad e53f c889 dc14 e96e e9bf
00000220: 78dd e1c8 7f7e f1bf 3b6d df6c 1b1a 07c0
00000230: f33b 6b80 c256 d6bf 3d7e 11de bb25 05c0
-2.1092280231541354 -1.1259971681922143 1.0049266505928278 -0.9234588314166182 0.13500046351260125 -2.0212970655837093 -1.3467544026576035 0.16969052402331877
-1.4093143425832813 -0.8925660313202364 -0.9061806300654125 -1.6244537632494833 -1.9208708595201982 -0.8509571481809767 -0.7623622426348955 0.9963785461362822
0.44618379880438563 -1.2160953693771532 -2.3732833186881903 -0.9776416889608708 0.04532272712642106 0.1980337940650004 -1.450270462718853 -1.919631850715535
0.15305912438278862 -1.9735941213999864 -3.058376679012594 -0.6738974307843205 -2.61869098001746 -0.12387744176662677 -1.0057797211888935 -1.521818908672194
-0.16012937440937425 -0.921536545672339 -4.5405923364914855 0.9968910514093745 -0.5359518578576495 -0.15320451216680867 -2.1580885123116036 -1.1143282409368918
-0.40240658199868407 -0.13914133583468435 -3.93935739246332 -0.0800211265626542 -1.1188305104329026 -0.04175096047148808 -1.4679835010514422 -2.152377167753801
-1.5683649813915124 -2.2609348387313033 -2.1224146701236553 -2.388493686841264 1.6640469176232289 0.5589340268131161 -0.44400724169870714 -0.8839201450550075
-3.250317833122244 -2.244694956538539 -1.3190525653641891 0.3032658865125187 -0.5926092063902192 -3.953902506844109 -0.8873792222040128 -1.716119119085787
-1.4666434077842962 0.1711719652205548 0.6774176233147371 -0.794788876290391 -1.0933835837330133 -2.8877476220783627 -0.3490453962412509 -2.643424734982345
